…
Combinations of feature depth and number of blocks determines the bottleneck size: between ~[1, 1, 1, max(filters)] to [1, 16, 16, max(filters)]~
#+begin_src bash
<<<  {'arch': 'UNetBU',
<<<   'dropouts': [0.3, 0.3, 0.3, 0.3, 0.3, 0.3, 0.3, 0.3],
<<<   'filters': [64, 128, 256, 512, 1024, 2048],
<<<   'n_blocks': [1, 1, 1, 2, 2, 1]})
=========================================================================================================
Layer (type:depth-idx)                        Input Shape          Output Shape         Param #
=========================================================================================================
UNetModular                                   [12, 1, 512, 512]    [12, 1, 512, 512]    --
├─UNetEncoder: 1-1                            [12, 1, 512, 512]    [12, 2048, 1, 1]     --
│    └─ModuleList: 2-1                        --                   --                   --
│    │    └─DownsampleConv: 3-1               [12, 1, 512, 512]    [12, 64, 256, 256]   --
│    │    │    └─Conv2d: 4-1                  [12, 1, 512, 512]    [12, 64, 256, 256]   1,024
│    │    │    └─Identity: 4-2                [12, 64, 256, 256]   [12, 64, 256, 256]   --
│    │    │    └─LeakyReLU: 4-3               [12, 64, 256, 256]   [12, 64, 256, 256]   --
│    │    └─DownsampleConv: 3-2               [12, 64, 256, 256]   [12, 128, 128, 128]  --
│    │    │    └─Conv2d: 4-4                  [12, 64, 256, 256]   [12, 128, 128, 128]  131,072
│    │    │    └─BatchNorm2d: 4-5             [12, 128, 128, 128]  [12, 128, 128, 128]  256
│    │    │    └─LeakyReLU: 4-6               [12, 128, 128, 128]  [12, 128, 128, 128]  --
│    │    └─DownsampleConv: 3-3               [12, 128, 128, 128]  [12, 256, 64, 64]    --
│    │    │    └─Conv2d: 4-7                  [12, 128, 128, 128]  [12, 256, 64, 64]    524,288
│    │    │    └─BatchNorm2d: 4-8             [12, 256, 64, 64]    [12, 256, 64, 64]    512
│    │    │    └─LeakyReLU: 4-9               [12, 256, 64, 64]    [12, 256, 64, 64]    --
│    │    └─DownsampleConv: 3-4               [12, 256, 64, 64]    [12, 512, 32, 32]    --
│    │    │    └─Conv2d: 4-10                 [12, 256, 64, 64]    [12, 512, 32, 32]    2,097,152
│    │    │    └─BatchNorm2d: 4-11            [12, 512, 32, 32]    [12, 512, 32, 32]    1,024
│    │    │    └─LeakyReLU: 4-12              [12, 512, 32, 32]    [12, 512, 32, 32]    --
│    │    └─DownsampleConv: 3-5               [12, 512, 32, 32]    [12, 512, 16, 16]    --
│    │    │    └─Conv2d: 4-13                 [12, 512, 32, 32]    [12, 512, 16, 16]    4,194,304
│    │    │    └─BatchNorm2d: 4-14            [12, 512, 16, 16]    [12, 512, 16, 16]    1,024
│    │    │    └─LeakyReLU: 4-15              [12, 512, 16, 16]    [12, 512, 16, 16]    --
│    │    └─DownsampleConv: 3-6               [12, 512, 16, 16]    [12, 1024, 8, 8]     --
│    │    │    └─Conv2d: 4-16                 [12, 512, 16, 16]    [12, 1024, 8, 8]     8,388,608
│    │    │    └─BatchNorm2d: 4-17            [12, 1024, 8, 8]     [12, 1024, 8, 8]     2,048
│    │    │    └─LeakyReLU: 4-18              [12, 1024, 8, 8]     [12, 1024, 8, 8]     --
│    │    └─DownsampleConv: 3-7               [12, 1024, 8, 8]     [12, 1024, 4, 4]     --
│    │    │    └─Conv2d: 4-19                 [12, 1024, 8, 8]     [12, 1024, 4, 4]     16,777,216
│    │    │    └─BatchNorm2d: 4-20            [12, 1024, 4, 4]     [12, 1024, 4, 4]     2,048
│    │    │    └─LeakyReLU: 4-21              [12, 1024, 4, 4]     [12, 1024, 4, 4]     --
│    │    └─DownsampleConv: 3-8               [12, 1024, 4, 4]     [12, 2048, 2, 2]     --
│    │    │    └─Conv2d: 4-22                 [12, 1024, 4, 4]     [12, 2048, 2, 2]     33,554,432
│    │    │    └─BatchNorm2d: 4-23            [12, 2048, 2, 2]     [12, 2048, 2, 2]     4,096
│    │    │    └─LeakyReLU: 4-24              [12, 2048, 2, 2]     [12, 2048, 2, 2]     --
│    │    └─DownsampleConv: 3-9               [12, 2048, 2, 2]     [12, 2048, 1, 1]     --
│    │    │    └─Conv2d: 4-25                 [12, 2048, 2, 2]     [12, 2048, 1, 1]     67,108,864
│    │    │    └─Identity: 4-26               [12, 2048, 1, 1]     [12, 2048, 1, 1]     --
│    │    │    └─LeakyReLU: 4-27              [12, 2048, 1, 1]     [12, 2048, 1, 1]     --
├─UNetDecoder: 1-2                            [12, 2048, 1, 1]     [12, 1, 512, 512]    --
│    └─ModuleList: 2-2                        --                   --                   --
│    │    └─UpsampleConv: 3-10                [12, 2048, 1, 1]     [12, 2048, 2, 2]     --
│    │    │    └─ConvTranspose2d: 4-28        [12, 2048, 1, 1]     [12, 2048, 2, 2]     67,108,864
│    │    │    └─BatchNorm2d: 4-29            [12, 2048, 2, 2]     [12, 2048, 2, 2]     4,096
│    │    │    └─ReLU: 4-30                   [12, 2048, 2, 2]     [12, 2048, 2, 2]     --
│    │    │    └─Dropout: 4-31                [12, 2048, 2, 2]     [12, 2048, 2, 2]     --
│    │    └─UpsampleConv: 3-11                [12, 4096, 2, 2]     [12, 1024, 4, 4]     --
│    │    │    └─ConvTranspose2d: 4-32        [12, 4096, 2, 2]     [12, 1024, 4, 4]     67,108,864
│    │    │    └─BatchNorm2d: 4-33            [12, 1024, 4, 4]     [12, 1024, 4, 4]     2,048
│    │    │    └─ReLU: 4-34                   [12, 1024, 4, 4]     [12, 1024, 4, 4]     --
│    │    │    └─Dropout: 4-35                [12, 1024, 4, 4]     [12, 1024, 4, 4]     --
│    │    └─UpsampleConv: 3-12                [12, 2048, 4, 4]     [12, 1024, 8, 8]     --
│    │    │    └─ConvTranspose2d: 4-36        [12, 2048, 4, 4]     [12, 1024, 8, 8]     33,554,432
│    │    │    └─BatchNorm2d: 4-37            [12, 1024, 8, 8]     [12, 1024, 8, 8]     2,048
│    │    │    └─ReLU: 4-38                   [12, 1024, 8, 8]     [12, 1024, 8, 8]     --
│    │    │    └─Dropout: 4-39                [12, 1024, 8, 8]     [12, 1024, 8, 8]     --
│    │    └─UpsampleConv: 3-13                [12, 2048, 8, 8]     [12, 512, 16, 16]    --
│    │    │    └─ConvTranspose2d: 4-40        [12, 2048, 8, 8]     [12, 512, 16, 16]    16,777,216
│    │    │    └─BatchNorm2d: 4-41            [12, 512, 16, 16]    [12, 512, 16, 16]    1,024
│    │    │    └─ReLU: 4-42                   [12, 512, 16, 16]    [12, 512, 16, 16]    --
│    │    │    └─Dropout: 4-43                [12, 512, 16, 16]    [12, 512, 16, 16]    --
│    │    └─UpsampleConv: 3-14                [12, 1024, 16, 16]   [12, 512, 32, 32]    --
│    │    │    └─ConvTranspose2d: 4-44        [12, 1024, 16, 16]   [12, 512, 32, 32]    8,388,608
│    │    │    └─BatchNorm2d: 4-45            [12, 512, 32, 32]    [12, 512, 32, 32]    1,024
│    │    │    └─ReLU: 4-46                   [12, 512, 32, 32]    [12, 512, 32, 32]    --
│    │    │    └─Dropout: 4-47                [12, 512, 32, 32]    [12, 512, 32, 32]    --
│    │    └─UpsampleConv: 3-15                [12, 1024, 32, 32]   [12, 256, 64, 64]    --
│    │    │    └─ConvTranspose2d: 4-48        [12, 1024, 32, 32]   [12, 256, 64, 64]    4,194,304
│    │    │    └─BatchNorm2d: 4-49            [12, 256, 64, 64]    [12, 256, 64, 64]    512
│    │    │    └─ReLU: 4-50                   [12, 256, 64, 64]    [12, 256, 64, 64]    --
│    │    │    └─Dropout: 4-51                [12, 256, 64, 64]    [12, 256, 64, 64]    --
│    │    └─UpsampleConv: 3-16                [12, 512, 64, 64]    [12, 128, 128, 128]  --
│    │    │    └─ConvTranspose2d: 4-52        [12, 512, 64, 64]    [12, 128, 128, 128]  1,048,576
│    │    │    └─BatchNorm2d: 4-53            [12, 128, 128, 128]  [12, 128, 128, 128]  256
│    │    │    └─ReLU: 4-54                   [12, 128, 128, 128]  [12, 128, 128, 128]  --
│    │    │    └─Dropout: 4-55                [12, 128, 128, 128]  [12, 128, 128, 128]  --
│    │    └─UpsampleConv: 3-17                [12, 256, 128, 128]  [12, 64, 256, 256]   --
│    │    │    └─ConvTranspose2d: 4-56        [12, 256, 128, 128]  [12, 64, 256, 256]   262,144
│    │    │    └─BatchNorm2d: 4-57            [12, 64, 256, 256]   [12, 64, 256, 256]   128
│    │    │    └─ReLU: 4-58                   [12, 64, 256, 256]   [12, 64, 256, 256]   --
│    │    │    └─Dropout: 4-59                [12, 64, 256, 256]   [12, 64, 256, 256]   --
│    │    └─UpsampleConv: 3-18                [12, 128, 256, 256]  [12, 1, 512, 512]    --
│    │    │    └─ConvTranspose2d: 4-60        [12, 128, 256, 256]  [12, 1, 512, 512]    2,048
│    │    │    └─Identity: 4-61               [12, 1, 512, 512]    [12, 1, 512, 512]    --
│    │    │    └─Tanh: 4-62                   [12, 1, 512, 512]    [12, 1, 512, 512]    --
=========================================================================================================
Total params: 331,244,160
Trainable params: 331,244,160
Non-trainable params: 0
Total mult-adds (Units.GIGABYTES): 924.49
=========================================================================================================
Input size (MB): 12.58
Forward/backward pass size (MB): 2727.54
Params size (MB): 1324.98
…
